…
/usr/local/lib/python3.10/dist-packages/keras/src/layers/preprocessing/tf_data_layer.py:19: UserWarning: Do not pass an `input_shape`/`input_dim` argument to a layer. When using Sequential models, prefer using an `Input(shape)` object as the first layer in the model instead.
  super().__init__(**kwargs)
Model: "sequential_3"
┏━━━━━━━━━━━━━━━━━━━━━━━━━━━━━━━━━━━━━━┳━━━━━━━━━━━━━━━━━━━━━━━━━━━━━┳━━━━━━━━━━━━━━━━━┓
┃ Layer (type)                         ┃ Output Shape                ┃         Param # ┃
┡━━━━━━━━━━━━━━━━━━━━━━━━━━━━━━━━━━━━━━╇━━━━━━━━━━━━━━━━━━━━━━━━━━━━━╇━━━━━━━━━━━━━━━━━┩
│ sequential_2 (Sequential)            │ (1, 150, 150, 3)            │               0 │
├──────────────────────────────────────┼─────────────────────────────┼─────────────────┤
│ rescaling (Rescaling)                │ (1, 150, 150, 3)            │               0 │
├──────────────────────────────────────┼─────────────────────────────┼─────────────────┤
│ conv2d_2 (Conv2D)                    │ (1, 148, 148, 32)           │             896 │
├──────────────────────────────────────┼─────────────────────────────┼─────────────────┤
│ max_pooling2d_2 (MaxPooling2D)       │ (1, 74, 74, 32)             │               0 │
├──────────────────────────────────────┼─────────────────────────────┼─────────────────┤
│ conv2d_3 (Conv2D)                    │ (1, 72, 72, 64)             │          18,496 │
├──────────────────────────────────────┼─────────────────────────────┼─────────────────┤
│ max_pooling2d_3 (MaxPooling2D)       │ (1, 36, 36, 64)             │               0 │
├──────────────────────────────────────┼─────────────────────────────┼─────────────────┤
│ conv2d_4 (Conv2D)                    │ (1, 34, 34, 128)            │          73,856 │
├──────────────────────────────────────┼─────────────────────────────┼─────────────────┤
│ max_pooling2d_4 (MaxPooling2D)       │ (1, 17, 17, 128)            │               0 │
├──────────────────────────────────────┼─────────────────────────────┼─────────────────┤
│ flatten_2 (Flatten)                  │ (1, 36992)                  │               0 │
├──────────────────────────────────────┼─────────────────────────────┼─────────────────┤
│ dense_4 (Dense)                      │ (1, 512)                    │      18,940,416 │
├──────────────────────────────────────┼─────────────────────────────┼─────────────────┤
│ dense_5 (Dense)                      │ (1, 1)                      │             513 │
└──────────────────────────────────────┴─────────────────────────────┴─────────────────┘
 Total params: 19,034,177 (72.61 MB)
 Trainable params: 19,034,177 (72.61 MB)
 Non-trainable params: 0 (0.00 B)

```
history = model.fit(train_ds, validation_data=val_ds, epochs=20, verbose=1)
```
такой результат:
Epoch 1/20
1/1 ━━━━━━━━━━━━━━━━━━━━ 3s 3s/step - accuracy: 0.4444 - loss: 0.7055 - val_accuracy: 0.5000 - val_loss: 0.8778
…
